…
For our SSL experiments on CIFAR-10, we use Adam with learning rate  = 2e-4, 1 = 0.5 and 2 = 0.999, both for critic f (without BN) and Generator (with BN). We selected CE = 1.5 from [0.8, 1.5, 3.0, 5.0]. We train all models for 350 epochs. We used some L2 weight decay: 1e-6 on , S (i.e. all layers except last) and 1e-3 weight decay on the last layer v. For formulation 1 (Fisher only) we have F = 1e-7, modified critic learning rate D = 1e-4, critic iters nc = 2. For formulation 2 (Sobolev + Fisher) we have F = 5e-8, S = 2e-8, critic iters nc = 1.
Architecture:
### CIFAR-10: 32x32. G is dcgan with G_extra_layers=2. ### D is in the flavor of OpenAI Improved GAN, ALI. G(
(main): Sequential ( (0): ConvTranspose2d(100, 256, kernel_size=(4, 4), stride=(1, 1), bias=False) (1): BatchNorm2d(256, eps=1e-05, momentum=0.1, affine=True) (2): ReLU (inplace) (3): ConvTranspose2d(256, 128, kernel_size=(4, 4), stride=(2, 2), padding=(1, 1), bias=False) (4): BatchNorm2d(128, eps=1e-05, momentum=0.1, affine=True) (5): ReLU (inplace) (6): ConvTranspose2d(128, 64, kernel_size=(4, 4), stride=(2, 2), padding=(1, 1), bias=False)
24

Under review as a conference paper at ICLR 2018
(7): BatchNorm2d(64, eps=1e-05, momentum=0.1, affine=True) (8): ReLU (inplace) (9): Conv2d(64, 64, kernel_size=(3, 3), stride=(1, 1), padding=(1, 1), bias=False) (10): BatchNorm2d(64, eps=1e-05, momentum=0.1, affine=True) (11): ReLU (inplace) (12): Conv2d(64, 64, kernel_size=(3, 3), stride=(1, 1), padding=(1, 1), bias=False) (13): BatchNorm2d(64, eps=1e-05, momentum=0.1, affine=True) (14): ReLU (inplace) (15): ConvTranspose2d(64, 3, kernel_size=(4, 4), stride=(2, 2), padding=(1, 1), bias=False) (16): Tanh () ) ) D( (main): Sequential ( (0): Dropout (p = 0.2) (1): Conv2d(3, 96, kernel_size=(3, 3), stride=(1, 1), padding=(1, 1)) (2): LeakyReLU (0.2, inplace) (3): Conv2d(96, 96, kernel_size=(3, 3), stride=(1, 1), padding=(1, 1), bias=False) (5): LeakyReLU (0.2, inplace) (6): Conv2d(96, 96, kernel_size=(3, 3), stride=(2, 2), padding=(1, 1), bias=False) (8): LeakyReLU (0.2, inplace) (9): Dropout (p = 0.5) (10): Conv2d(96, 192, kernel_size=(3, 3), stride=(1, 1), padding=(1, 1), bias=False) (12): LeakyReLU (0.2, inplace) (13): Conv2d(192, 192, kernel_size=(3, 3), stride=(1, 1), padding=(1, 1), bias=False) (15): LeakyReLU (0.2, inplace) (16): Conv2d(192, 192, kernel_size=(3, 3), stride=(2, 2), padding=(1, 1), bias=False) (18): LeakyReLU (0.2, inplace) (19): Dropout (p = 0.5) (20): Conv2d(192, 384, kernel_size=(3, 3), stride=(1, 1), bias=False) (22): LeakyReLU (0.2, inplace) (23): Dropout (p = 0.5) (24): Conv2d(384, 384, kernel_size=(3, 3), stride=(1, 1), bias=False) (26): LeakyReLU (0.2, inplace) (27): Dropout (p = 0.5) (28): Conv2d(384, 384, kernel_size=(1, 1), stride=(1, 1), bias=False) (30): LeakyReLU (0.2, inplace) (31): Dropout (p = 0.5) ) (V): Linear (6144 -> 1) (S): Linear (6144 -> 10) )
25

